…
    "text": "Keras Tuner - 모델 저장\n\nmodel_2= tuner.get_best_models(num_models=1)[0]\nmodel_2.summary()\n\nc:\\Users\\kibok\\AppData\\Local\\Programs\\Python\\Python312\\Lib\\site-packages\\keras\\src\\saving\\saving_lib.py:576: UserWarning: Skipping variable loading for optimizer 'nadam', because it has 2 variables whereas the saved optimizer has 55 variables. \n  saveable.load_own_variables(weights_store.get(inner_path))\n\n\nModel: \"sequential\"\n\n\n\n┏━━━━━━━━━━━━━━━━━━━━━━━━━━━━━━━━━┳━━━━━━━━━━━━━━━━━━━━━━━━┳━━━━━━━━━━━━━━━┓\n┃ Layer (type)                    ┃ Output Shape           ┃       Param # ┃\n┡━━━━━━━━━━━━━━━━━━━━━━━━━━━━━━━━━╇━━━━━━━━━━━━━━━━━━━━━━━━╇━━━━━━━━━━━━━━━┩\n│ flatten (Flatten)               │ (None, 29)             │             0 │\n├─────────────────────────────────┼────────────────────────┼───────────────┤\n│ dense (Dense)                   │ (None, 90)             │         2,700 │\n├─────────────────────────────────┼────────────────────────┼───────────────┤\n│ dropout (Dropout)               │ (None, 90)             │             0 │\n├─────────────────────────────────┼────────────────────────┼───────────────┤\n│ dense_1 (Dense)                 │ (None, 90)             │         8,190 │\n├─────────────────────────────────┼────────────────────────┼───────────────┤\n│ dropout_1 (Dropout)             │ (None, 90)             │             0 │\n├─────────────────────────────────┼────────────────────────┼───────────────┤\n│ dense_2 (Dense)                 │ (None, 90)             │         8,190 │\n├─────────────────────────────────┼────────────────────────┼───────────────┤\n│ dropout_2 (Dropout)             │ (None, 90)             │             0 │\n├─────────────────────────────────┼────────────────────────┼───────────────┤\n│ dense_3 (Dense)                 │ (None, 90)             │         8,190 │\n├─────────────────────────────────┼────────────────────────┼───────────────┤\n│ dropout_3 (Dropout)             │ (None, 90)             │             0 │\n├─────────────────────────────────┼────────────────────────┼───────────────┤\n│ dense_4 (Dense)                 │ (None, 90)             │         8,190 │\n├─────────────────────────────────┼────────────────────────┼───────────────┤\n│ dropout_4 (Dropout)             │ (None, 90)             │             0 │\n├─────────────────────────────────┼────────────────────────┼───────────────┤\n│ dense_5 (Dense)                 │ (None, 90)             │         8,190 │\n├─────────────────────────────────┼────────────────────────┼───────────────┤\n│ dropout_5 (Dropout)             │ (None, 90)             │             0 │\n├─────────────────────────────────┼────────────────────────┼───────────────┤\n│ dense_6 (Dense)                 │ (None, 90)             │         8,190 │\n├─────────────────────────────────┼────────────────────────┼───────────────┤\n│ dropout_6 (Dropout)             │ (None, 90)             │             0 │\n├─────────────────────────────────┼────────────────────────┼───────────────┤\n│ dense_7 (Dense)                 │ (None, 90)             │         8,190 │\n├─────────────────────────────────┼────────────────────────┼───────────────┤\n│ dropout_7 (Dropout)             │ (None, 90)             │             0 │\n├─────────────────────────────────┼────────────────────────┼───────────────┤\n│ dense_8 (Dense)                 │ (None, 90)             │         8,190 │\n├─────────────────────────────────┼────────────────────────┼───────────────┤\n│ dropout_8 (Dropout)             │ (None, 90)             │             0 │\n├─────────────────────────────────┼────────────────────────┼───────────────┤\n│ dense_9 (Dense)                 │ (None, 90)             │         8,190 │\n├─────────────────────────────────┼────────────────────────┼───────────────┤\n│ dropout_9 (Dropout)             │ (None, 90)             │             0 │\n├─────────────────────────────────┼────────────────────────┼───────────────┤\n│ dense_10 (Dense)                │ (None, 90)             │         8,190 │\n├─────────────────────────────────┼────────────────────────┼───────────────┤\n│ dropout_10 (Dropout)            │ (None, 90)             │             0 │\n├─────────────────────────────────┼────────────────────────┼───────────────┤\n│ dense_11 (Dense)                │ (None, 90)             │         8,190 │\n├─────────────────────────────────┼────────────────────────┼───────────────┤\n│ dropout_11 (Dropout)            │ (None, 90)             │             0 │\n├─────────────────────────────────┼────────────────────────┼───────────────┤\n│ dense_12 (Dense)                │ (None, 1)              │            91 │\n└─────────────────────────────────┴────────────────────────┴───────────────┘\n\n\n\n Total params: 92,881 (362.82 KB)\n\n\n\n Trainable params: 92,881 (362.82 KB)\n\n\n\n Non-trainable params: 0 (0.00 B)\n\n\n\n\n# 모델 학습\nhistory = model_2.fit(x_train, y_train, epochs=10)\n\n# 모델 평가\nprint('* 모델평가')\nloss, f1score = model_2.evaluate(x_train, y_train, verbose=2)\nloss, f1score = model_2.evaluat
…
.Flatten(),\n    layers.Dense(256, activation='relu'),\n    layers.BatchNormalization(),\n    layers.Dropout(0.5),\n    layers.Dense(10, activation='softmax')\n])\nmodel.compile(optimizer='adam',\n              loss='binary_crossentropy',\n              metrics=['accuracy'])\n\nmodel.summary()\n\nModel: \"sequential_14\"\n\n\n\n┏━━━━━━━━━━━━━━━━━━━━━━━━━━━━━━━━━┳━━━━━━━━━━━━━━━━━━━━━━━━┳━━━━━━━━━━━━━━━┓\n┃ Layer (type)                    ┃ Output Shape           ┃       Param # ┃\n┡━━━━━━━━━━━━━━━━━━━━━━━━━━━━━━━━━╇━━━━━━━━━━━━━━━━━━━━━━━━╇━━━━━━━━━━━━━━━┩\n│ conv2d_40 (Conv2D)              │ (None, 28, 28, 32)     │           320 │\n├─────────────────────────────────┼────────────────────────┼───────────────┤\n│ batch_normalization_52          │ (None, 28, 28, 32)     │           128 │\n│ (BatchNormalization)            │                        │               │\n├─────────────────────────────────┼────────────────────────┼───────────────┤\n│ conv2d_41 (Conv2D)              │ (None, 28, 28, 64)     │        18,496 │\n├─────────────────────────────────┼────────────────────────┼───────────────┤\n│ batch_normalization_53          │ (None, 28, 28, 64)     │           256 │\n│ (BatchNormalization)            │                        │               │\n├─────────────────────────────────┼────────────────────────┼───────────────┤\n│ max_pooling2d_27 (MaxPooling2D) │ (None, 14, 14, 64)     │             0 │\n├─────────────────────────────────┼────────────────────────┼───────────────┤\n│ dropout_39 (Dropout)            │ (None, 14, 14, 64)     │             0 │\n├─────────────────────────────────┼────────────────────────┼───────────────┤\n│ conv2d_42 (Conv2D)              │ (None, 14, 14, 128)    │        73,856 │\n├─────────────────────────────────┼────────────────────────┼───────────────┤\n│ batch_normalization_54          │ (None, 14, 14, 128)    │           512 │\n│ (BatchNormalization)            │                        │               │\n├─────────────────────────────────┼────────────────────────┼───────────────┤\n│ max_pooling2d_28 (MaxPooling2D) │ (None, 7, 7, 128)      │             0 │\n├─────────────────────────────────┼────────────────────────┼───────────────┤\n│ dropout_40 (Dropout)            │ (None, 7, 7, 128)      │             0 │\n├─────────────────────────────────┼────────────────────────┼───────────────┤\n│ flatten_14 (Flatten)            │ (None, 6272)           │             0 │\n├─────────────────────────────────┼────────────────────────┼───────────────┤\n│ dense_27 (Dense)                │ (None, 256)            │     1,605,888 │\n├─────────────────────────────────┼────────────────────────┼───────────────┤\n│ batch_normalization_55          │ (None, 256)            │         1,024 │\n│ (BatchNormalization)            │                        │               │\n├─────────────────────────────────┼────────────────────────┼───────────────┤\n│ dropout_41 (Dropout)            │ (None, 256)            │             0 │\n├─────────────────────────────────┼────────────────────────┼───────────────┤\n│ dense_28 (Dense)                │ (None, 10)             │         2,570 │\n└─────────────────────────────────┴────────────────────────┴───────────────┘\n\n\n\n Total params: 1,703,050 (6.50 MB)\n\n\n\n Trainable params: 1,702,090 (6.49 MB)\n\n\n\n Non-trainable params: 960 (3.75 KB)\n\n\n\n\n\n모델학습 및 학습과정 시각화\n\nhistory = model.fit(x_train, y_train_one_hot, epochs=10, batch_size=64, verbose=0)\nhistory.history\n\n{'accuracy': [0.9526000022888184,\n  0.984933316707611
…
a\\Local\\Programs\\Python\\Python312\\Lib\\site-packages\\keras\\src\\saving\\saving_lib.py:576: UserWarning: Skipping variable loading for optimizer 'nadam', because it has 2 variables whereas the saved optimizer has 75 variables. \n  saveable.load_own_variables(weights_store.get(inner_path))\n\n\nModel: \"sequential\"\n\n\n\n┏━━━━━━━━━━━━━━━━━━━━━━━━━━━━━━━━━┳━━━━━━━━━━━━━━━━━━━━━━━━┳━━━━━━━━━━━━━━━┓\n┃ Layer (type)                    ┃ Output Shape           ┃       Param # ┃\n┡━━━━━━━━━━━━━━━━━━━━━━━━━━━━━━━━━╇━━━━━━━━━━━━━━━━━━━━━━━━╇━━━━━━━━━━━━━━━┩\n│ flatten (Flatten)               │ (None, 29)             │             0 │\n├─────────────────────────────────┼────────────────────────┼───────────────┤\n│ dense (Dense)                   │ (None, 145)            │         4,350 │\n├─────────────────────────────────┼────────────────────────┼───────────────┤\n│ dropout (Dropout)               │ (None, 145)            │             0 │\n├─────────────────────────────────┼────────────────────────┼───────────────┤\n│ dense_1 (Dense)                 │ (None, 145)            │        21,170 │\n├─────────────────────────────────┼────────────────────────┼───────────────┤\n│ dropout_1 (Dropout)             │ (None, 145)            │             0 │\n├─────────────────────────────────┼────────────────────────┼───────────────┤\n│ dense_2 (Dense)                 │ (None, 145)            │        21,170 │\n├─────────────────────────────────┼────────────────────────┼───────────────┤\n│ dropout_2 (Dropout)             │ (None, 145)            │             0 │\n├─────────────────────────────────┼────────────────────────┼───────────────┤\n│ dense_3 (Dense)                 │ (None, 145)            │        21,170 │\n├─────────────────────────────────┼────────────────────────┼───────────────┤\n│ dropout_3 (Dropout)             │ (None, 145)            │             0 │\n├─────────────────────────────────┼────────────────────────┼───────────────┤\n│ dense_4 (Dense)                 │ (None, 145)            │        21,170 │\n├─────────────────────────────────┼────────────────────────┼───────────────┤\n│ dropout_4 (Dropout)             │ (None, 145)            │             0 │\n├─────────────────────────────────┼────────────────────────┼───────────────┤\n│ dense_5 (Dense)                 │ (None, 145)            │        21,170 │\n├─────────────────────────────────┼────────────────────────┼───────────────┤\n│ dropout_5 (Dropout)             │ (None, 145)            │             0 │\n├─────────────────────────────────┼────────────────────────┼───────────────┤\n│ dense_6 (Dense)                 │ (None, 145)            │        21,170 │\n├─────────────────────────────────┼────────────────────────┼───────────────┤\n│ dropout_6 (Dropout)             │ (None, 145)            │             0 │\n├─────────────────────────────────┼────────────────────────┼───────────────┤\n│ dense_7 (Dense)                 │ (None, 145)            │        21,170 │\n├─────────────────────────────────┼────────────────────────┼───────────────┤\n│ dropout_7 (Dropout)             │ (None, 145)            │             0 │\n├─────────────────────────────────┼────────────────────────┼───────────────┤\n│ dense_8 (Dense)                 │ (None, 145)            │        21,170 │\n├─────────────────────────────────┼────────────────────────┼───────────────┤\n│ dropout_8 (Dropout)             │ (None, 145)            │             0 │\n├─────────────────────────────────┼────────────────────────┼───────────────┤\n│ dense_9 (Dense)                 │ (None, 145)            │        21,170 │\n├─────────────────────────────────┼────────────────────────┼───────────────┤\n│ dropout_9 (Dropout)             │ (None, 145)            │             0 │\n├─────────────────────────────────┼────────────────────────┼───────────────┤\n│ dense_10 (Dense)                │ (None, 145)            │        21,170 │\n├─────────────────────────────────┼────────────────────────┼───────────────┤\n│ dropout_10 (Dropout)            │ (None, 145)            │             0 │\n├─────────────────────────────────┼────────────────────────┼───────────────┤\n│ dense_11 (Dense)                │ (None, 145)            │        21,170 │\n├─────────────────────────────────┼────────────────────────┼───────────────┤\n│ dropout_11 (Dropout)            │ (None, 145)            │             0 │\n├─────────────────────────────────┼────────────────────────┼───────────────┤\n│ dense_12 (Dense)                │ (None, 145)            │        21,170 │\n├─────────────────────────────────┼────────────────────────┼───────────────┤\n│ dropout_12 (Dropout)            │ (None, 145)            │             0 │\n├─────────────────────────────────┼────────────────────────┼───────────────┤\n│ dense_13 (Dense)                │ (None, 145)            │        21,170 │\n├─────────────────────────────────┼────────────────────────┼───────────────┤\n│ dropout_13 (Dropout)            │ (None, 145)            │             0 │\n├─────────────────────────────────┼────────────────────────┼───────────────┤\n│ dense_14 (Dense)                │ (None, 145)            │        21,170 │\n├─────────────────────────────────┼────────────────────────┼───────────────┤\n│ dropout_14 (Dropout)            │ (None, 145)            │             0 │\n├─────────────────────────────────┼────────────────────────┼───────────────┤\n│ dense_15 (Dense)                │ (None, 145)            │        21,170 │\n├─────────────────────────────────┼────────────────────────┼───────────────┤\n│ dropout_15 (Dropout)            │ (None, 145)            │             0 │\n├─────────────────────────────────┼────────────────────────┼───────────────┤\n│ dense_16 (Dense)                │ (None, 145)            │        21,170 │\n├─────────────────────────────────┼────────────────────────┼───────────────┤\n│ dropout_16 (Dropout)            │ (None, 145)            │             0 │\n├─────────────────────────────────┼────────────────────────┼───────────────┤\n│ dense_17 (Dense)                │ (None, 1)              │           146 │\n└─────────────────────────────────┴────────────────────────┴───────────────┘\n\n\n\n Total params: 343,216 (1.31 MB)\n\n\n\n Trainable params: 343,216 (1.31 MB)\n\n\n\n Non-trainable params: 0 (0.00 B)\n\n\n\n\n# 모델 학습\nhistory = model_3.fit(x_train, y_train, epochs=10)\n\n# 모델 평가\nprint('* 모델평가')\nloss, f1score = model_3.evaluate(x_train, y_train, verbose=2)\nloss, f1score = model_3.evaluate(
…
a\\Local\\Programs\\Python\\Python312\\Lib\\site-packages\\keras\\src\\saving\\saving_lib.py:576: UserWarning: Skipping variable loading for optimizer 'nadam', because it has 2 variables whereas the saved optimizer has 31 variables. \n  saveable.load_own_variables(weights_store.get(inner_path))\n\n\nModel: \"sequential\"\n\n\n\n┏━━━━━━━━━━━━━━━━━━━━━━━━━━━━━━━━━┳━━━━━━━━━━━━━━━━━━━━━━━━┳━━━━━━━━━━━━━━━┓\n┃ Layer (type)                    ┃ Output Shape           ┃       Param # ┃\n┡━━━━━━━━━━━━━━━━━━━━━━━━━━━━━━━━━╇━━━━━━━━━━━━━━━━━━━━━━━━╇━━━━━━━━━━━━━━━┩\n│ flatten (Flatten)               │ (None, 29)             │             0 │\n├─────────────────────────────────┼────────────────────────┼───────────────┤\n│ dense (Dense)                   │ (None, 5)              │           150 │\n├─────────────────────────────────┼────────────────────────┼───────────────┤\n│ batch_normalization             │ (None, 5)              │            20 │\n│ (BatchNormalization)            │                        │               │\n├─────────────────────────────────┼────────────────────────┼───────────────┤\n│ dropout (Dropout)               │ (None, 5)              │             0 │\n├─────────────────────────────────┼────────────────────────┼───────────────┤\n│ dense_1 (Dense)                 │ (None, 5)              │            30 │\n├─────────────────────────────────┼────────────────────────┼───────────────┤\n│ batch_normalization_1           │ (None, 5)              │            20 │\n│ (BatchNormalization)            │                        │               │\n├─────────────────────────────────┼────────────────────────┼───────────────┤\n│ dropout_1 (Dropout)             │ (None, 5)              │             0 │\n├─────────────────────────────────┼────────────────────────┼───────────────┤\n│ dense_2 (Dense)                 │ (None, 5)              │            30 │\n├─────────────────────────────────┼────────────────────────┼───────────────┤\n│ batch_normalization_2           │ (None, 5)              │            20 │\n│ (BatchNormalization)            │                        │               │\n├─────────────────────────────────┼────────────────────────┼───────────────┤\n│ dropout_2 (Dropout)             │ (None, 5)              │             0 │\n├─────────────────────────────────┼────────────────────────┼───────────────┤\n│ dense_3 (Dense)                 │ (None, 1)              │             6 │\n└─────────────────────────────────┴────────────────────────┴───────────────┘\n\n\n\n Total params: 276 (1.08 KB)\n\n\n\n Trainable params: 246 (984.00 B)\n\n\n\n Non-trainable params: 30 (120.00 B)\n\n\n\n\n# 모델 학습\nhistory = model_4.fit(x_train, y_train, epochs=10)\n\n# 모델 평가\nprint('* 모델평가')\nloss, f1score = model_4.evaluate(x_train, y_train, verbose=2)\nloss, f1score = model_4.evaluate(x_te
…
 'elu',\n 'dropout17': 0.1,\n 'activation18': 'elu',\n 'dropout18': 0.2,\n 'activation19': 'elu',\n 'dropout19': 0.5,\n 'tuner/epochs': 10,\n 'tuner/initial_epoch': 0,\n 'tuner/bracket': 0,\n 'tuner/round': 0}\n\n\n\nmodel_by_tuner= tuner.get_best_models(num_models=1)[0]\nmodel_by_tuner.summary()\n\nModel: \"sequential\"\n\n\n\n┏━━━━━━━━━━━━━━━━━━━━━━━━━━━━━━━━━┳━━━━━━━━━━━━━━━━━━━━━━━━┳━━━━━━━━━━━━━━━┓\n┃ Layer (type)                    ┃ Output Shape           ┃       Param # ┃\n┡━━━━━━━━━━━━━━━━━━━━━━━━━━━━━━━━━╇━━━━━━━━━━━━━━━━━━━━━━━━╇━━━━━━━━━━━━━━━┩\n│ flatten (Flatten)               │ (None, 29)             │             0 │\n├─────────────────────────────────┼────────────────────────┼───────────────┤\n│ dense (Dense)                   │ (None, 105)            │         3,150 │\n├─────────────────────────────────┼────────────────────────┼───────────────┤\n│ batch_normalization             │ (None, 105)            │           420 │\n│ (BatchNormalization)            │                        │               │\n├─────────────────────────────────┼────────────────────────┼───────────────┤\n│ dropout (Dropout)               │ (None, 105)            │             0 │\n├─────────────────────────────────┼────────────────────────┼───────────────┤\n│ dense_1 (Dense)                 │ (None, 105)            │        11,130 │\n├─────────────────────────────────┼────────────────────────┼───────────────┤\n│ batch_normalization_1           │ (None, 105)            │           420 │\n│ (BatchNormalization)            │                        │               │\n├─────────────────────────────────┼────────────────────────┼───────────────┤\n│ dropout_1 (Dropout)             │ (None, 105)            │             0 │\n├─────────────────────────────────┼────────────────────────┼───────────────┤\n│ dense_2 (Dense)                 │ (None, 105)            │        11,130 │\n├─────────────────────────────────┼────────────────────────┼───────────────┤\n│ batch_normalization_2           │ (None, 105)            │           420 │\n│ (BatchNormalization)            │                        │               │\n├─────────────────────────────────┼────────────────────────┼───────────────┤\n│ dropout_2 (Dropout)             │ (None, 105)            │             0 │\n├─────────────────────────────────┼────────────────────────┼───────────────┤\n│ dense_3 (Dense)                 │ (None, 105)            │        11,130 │\n├─────────────────────────────────┼────────────────────────┼───────────────┤\n│ batch_normalization_3           │ (None, 105)            │           420 │\n│ (BatchNormalization)            │                        │               │\n├─────────────────────────────────┼────────────────────────┼───────────────┤\n│ dropout_3 (Dropout)             │ (None, 105)            │             0 │\n├─────────────────────────────────┼────────────────────────┼───────────────┤\n│ dense_4 (Dense)                 │ (None, 1)              │           106 │\n└─────────────────────────────────┴────────────────────────┴───────────────┘\n\n\n\n Total params: 38,326 (149.71 KB)\n\n\n\n Trainable params: 37,486 (146.43 KB)\n\n\n\n Non-trainable params: 840 (3.28 KB)\n\n\n\n\n\n딥러닝 모델에 Learning rate scheduler와 Early stopping 적용\n\nLearning rate scheduler와 Early stopping 모두 weighted f1-score는 지원하지 않아, val_f1-score로 사용\n\n    UserWarning: Learning rate re
…
76) : [3*3*64]\nmodel.add(Flatten())\n\n# 이전 Layer와 결합. Node=64\n# parameters(36928) : [576*64(weights)+64(biases)]\nmodel.add(Dense(64, activation='relu'))\n\n# 이전 Layer와 결합. Output = 10\n# parameters(650) : [64*10(weights)+10(biases)]\nmodel.add(Dense(10, activation='softmax'))\nmodel.summary()\n\nModel: \"sequential\"\n\n\n\n┏━━━━━━━━━━━━━━━━━━━━━━━━━━━━━━━━━┳━━━━━━━━━━━━━━━━━━━━━━━━┳━━━━━━━━━━━━━━━┓\n┃ Layer (type)                    ┃ Output Shape           ┃       Param # ┃\n┡━━━━━━━━━━━━━━━━━━━━━━━━━━━━━━━━━╇━━━━━━━━━━━━━━━━━━━━━━━━╇━━━━━━━━━━━━━━━┩\n│ conv2d (Conv2D)                 │ (None, 26, 26, 32)     │           320 │\n├─────────────────────────────────┼────────────────────────┼───────────────┤\n│ max_pooling2d (MaxPooling2D)    │ (None, 13, 13, 32)     │             0 │\n├─────────────────────────────────┼────────────────────────┼───────────────┤\n│ conv2d_1 (Conv2D)               │ (None, 11, 11, 64)     │        18,496 │\n├─────────────────────────────────┼────────────────────────┼───────────────┤\n│ max_pooling2d_1 (MaxPooling2D)  │ (None, 5, 5, 64)       │             0 │\n├─────────────────────────────────┼────────────────────────┼───────────────┤\n│ conv2d_2 (Conv2D)               │ (None, 3, 3, 64)       │        36,928 │\n├─────────────────────────────────┼────────────────────────┼───────────────┤\n│ flatten (Flatten)               │ (None, 576)            │             0 │\n├─────────────────────────────────┼────────────────────────┼───────────────┤\n│ dense (Dense)                   │ (None, 64)             │        36,928 │\n├─────────────────────────────────┼────────────────────────┼───────────────┤\n│ dense_1 (Dense)                 │ (None, 10)             │           650 │\n└─────────────────────────────────┴────────────────────────┴───────────────┘\n\n\n\n Total params: 93,322 (364.54 KB)\n\n\n\n Trainable params: 93,322 (364.54 KB)\n\n\n\n Non-trainable params: 0 (0.00 B)\n\n\n\n\n\n모델 컴파일(Loss function, optimizer, metrics 설정)\n\n# Loss function은\n#  Label = number 인 경우 → sparse_categorical_crossentropy (one-hot이 아니므로 메모리소요가 적다)\n#  Label = one-hot 인 경우 → categ
…
